machine learning/week5_my/theta1.npy (npy, 80328 bytes, 1 tensors)

array f8 [401, 25]
00000000: dab6 c7dc a816 fabf 971d bf19 0535 f7bf
00000010: cb3d c0e5 23c0 c73f b147 5b51 1467 e0bf
00000020: 1e26 eecc 41f8 f03f fb2d 7b18 4eb3 f6bf
00000030: 12b4 770b c660 fabf ff6c 6194 4c1f ee3f
00000040: 96dc bb2e 8d38 f43f 7920 177c acd3 d33f
00000050: 526b 1947 2a37 f2bf d398 528b 35cf ddbf
00000060: b098 bbc6 060c d63f c0d3 dddb 071c edbf
00000070: 19ea 7cc5 e3cb e03f 8c4f 6f93 56df f0bf
00000080: abd8 4b26 d4e1 c4bf 16f6 7fa1 69f9 febf
00000090: aeaf fe09 1af6 01c0 1437 d31f 1c5b d2bf
000000a0: a2f8 0325 728a e1bf 39e9 f5f9 2e3a c63f
000000b0: 061d b4ea 1de9 e5bf 178d 2943 1209 dfbf
000000c0: ab5d 0beb 96de e13f 608a d70f 218d 7a3f
000000d0: 90b4 7636 bbed 983f 989a 2d0c 24cb af3f
000000e0: b813 7d9e f3dc b8bf 84b3 9dbf 8c3c bdbf
000000f0: 4889 83d6 80c7 92bf fc82 2180 d579 a43f
00000100: 10ae 657d 31c9 7abf 02be 6726 b1b3 a4bf
00000110: 9e1f b1e9 3b45 b73f 901f d7da efc9 72bf
00000120: 0e30 c65c b9ca b93f 9851 cee3 0bac b0bf
00000130: f0cb ad3e 3267 9f3f a075 10fb ef0e 683f
00000140: 58e5 5844 cc2c af3f c045 d034 e4c7 5dbf
00000150: 24e9 10bf 4183 aa3f 9c97 11bd 3cd6 a93f
00000160: a201 0a86 b31e babf 8e2d 7131 9eeb b53f
00000170: 5858 cdfb a04c b03f 5041 83f6 4aff 73bf
00000180: 6069 8603 8fc1 b2bf 3ec2 02d3 333d b93f
00000190: 2422 457e 6148 b73f 9c1e 7b4e a61f bd3f
000001a0: b00d 7d62 9c1a b63f 9971 28a1 45d3 bbbf
000001b0: be24 2cb2 e4d0 a8bf 9aff 9e26 cc09 be3f
000001c0: 2016 9da3 1932 8cbf 0059 0012 f9f3 613f
000001d0: 5433 407b 54a9 bdbf 588a 5c2b 276b babf
000001e0: 10b1 168f b119 a4bf d028 bc1f f0b4 873f
000001f0: 423a 2ce9 98a6 b93f 3789 aa76 3764 bdbf
00000200: 6adf 1f3c bae0 a9bf b0d8 b404 0323 a13f
00000210: c02b c371 41d4 b03f 345c 0d63 4285 9dbf
00000220: cca3 de08 b6c3 a6bf 7045 3b5e 0c71 a73f
00000230: 8854 aec9 5e50 96bf d8cb 898a 69af a03f
00000240: 26e5 8e16 34a2 bbbf ea69 0d08 1e17 b53f
00000250: 8068 c09c 8b6c bebf bcec e208 927d b9bf
00000260: bb1f 0360 3f70 b1bf 7fb9 14bd 2782 aabf
00000270: 6861 e936 b2ba b43f 942b fe06 9ccd 7abf
00000280: f29b 9d61 3763 b4bf 1da4 b96f eeb4 be3f
00000290: 056d 041b 45b8 3c3f 8eb9 469e 3013 b1bf
000002a0: 7b54 43e4 1a50 87bf 45d1 c922 7a77 983f
000002b0: 4fde 4459 5684 afbf e6a6 7c0f d204 a1bf
000002c0: 51a0 9587 245f b0bf 527f 2981 b331 a8bf
000002d0: 4571 1a31 f306 903f f136 7d7a 3448 b7bf
000002e0: 961b 73c7 2a26 b7bf c5cd c524 4e12 bbbf
000002f0: 5103 aa70 178c a43f 8b0d aebc a78e bd3f
00000300: 8145 eb34 4304 9abf a63f 75aa 9f94 9d3f
00000310: 0405 a6de 1f64 b7bf 635a fcc9 575d b73f
00000320: b43b d67d 93b6 af3f c07b 5690 1e0c b13f
00000330: 4b82 c0a6 e33a b0bf 93d9 2f0f 004d b73f
00000340: f580 3b27 faeb b83f 6223 1612 afbd b93f
00000350: f9fc c793 e4c5 523f 9218 61ed ce12 8abf
00000360: aff9 5d3b e794 4dbf 4a08 9398 92b8 ba3f
00000370: 9aa1 18d3 5f40 b7bf 4766 ff0a 0e68 b03f
00000380: ade1 5072 3370 a6bf c9d4 3ed7 6a26 59bf
00000390: 731b 3bfe 897f a03f c6ca 0c38 36c6 ba3f
000003a0: 67bb 423d 7d96 bbbf 281f d93e d99c b43f
000003b0: 8d12 4684 7934 a03f aa98 5581 49ca 8cbf
000003c0: 7ebd c5b7 8310 b2bf 3e04 513f d7ad a8bf
000003d0: f2ab 2793 d613 bb3f 9e9e 7e3c bf8d a7bf
000003e0: 6850 f874 9fbd b93f 8dbf 90bd 7c38 b93f
000003f0: c3b1 5ba4 983a bb3f 7aef 74d9 104d b9bf
00000400: 3240 185e 9ab3 bebf ffa9 0414 673b b6bf
00000410: 112f 821a 6d62 25bf 0123 2480 4c31 abbf
00000420: 128b 48fc 783c b3bf 3670 98d7 f2bc bdbf
00000430: f973 e007 a218 b6bf 3523 1000 8601 21bf
00000440: de91 7861 9c1b be3f edf3 24c3 50b7 b3bf
00000450: 19b9 5b04 0cc7 babf 0869 5b8e 9d8a aebf
00000460: e484 39b7 551c 70bf 6a76 4d79 1df8 b63f
00000470: 6af3 74b1 e4ba b2bf 7b61 df72 ab81 99bf
00000480: f20c e886 d1aa 81bf a030 349e 7545 bbbf
00000490: 4eb7 9d0a 574e a63f 4a02 d812 7a15 ab3f
000004a0: 9086 e86a f4c1 98bf 7eb5 a96b 888f a7bf
000004b0: e7f8 fb8a 8936 b73f e2a9 edfe 6832 af3f
000004c0: 16a9 8925 e476 b33f db9c 73b5 f046 b43f
000004d0: 0505 f9f1 cb1e b43f d8ee c554 473e b43f
000004e0: 5b6d 9561 c6a0 aabf 524c 86b3 ab3b b3bf
000004f0: 4682 4e8e d770 933f 604f 0c4e 1191 b6bf
00000500: 3807 befb 22cc b33f 9c52 d357 4827 af3f
00000510: 8560 83e5 888c a4bf f651 d04a 2642 ab3f
00000520: 27c3 9522 143e a3bf e3fe dad2 d2a5 bcbf
00000530: 86e4 cd90 51ac b6bf c5df 98a7 0bb0 66bf
00000540: 9247 14a2 43da b53f c9dd a52e 26ab 7c3f
00000550: e02d d723 b36b bbbf 5b7c 3647 d346 9dbf
00000560: ce06 5466 06f4 b0bf f169 9c5d 3ef8 babf
00000570: 00e5 eab8 935b b63f 2410 aceb 3c01 bc3f
00000580: de8b e597 47a0 abbf 1a5b f412 ad52 a3bf
00000590: 9794 d16a d718 92bf 231e 9569 ec27 adbf
000005a0: 016b 91d4 bc05 adbf 0c21 6883 b40c 7abf
000005b0: d7b5 a8ba 1668 b9bf 742f 44c1 00df b0bf
000005c0: 2214 2a19 f465 c13f 9144 8a77 a674 af3f
000005d0: 0f32 4435 eba2 a83f e073 ba4e abef a53f
000005e0: 9de8 f602 6267 a43f ac59 a538 fee7 a63f
000005f0: 5e6e de28 e11c bb3f 4121 0c3d 90a9 bb3f
00000600: 2429 2c66 18cc 95bf 9de7 a74e 317a b63f
00000610: eb0c eaff 6f66 bc3f 89a0 14a9 250b bdbf
00000620: 62ec 9aa9 ea0d c4bf 7a30 c84c 26f9 8ebf
00000630: bb37 2f2e e62d b23f b306 8273 35af 83bf
00000640: b312 7e0b e071 b7bf 26a1 215b 28ce a23f
00000650: c8d1 94b0 a1ad be3f 9d39 d0ec 2cce b8bf
00000660: 3b27 e801 2afd a3bf 8834 8f04 d8d9 b3bf
00000670: 9aba 96cd 0b7b a43f 9907 54dc c0fd 81bf
00000680: 6e23 6592 7c01 88bf 9866 839e 9f7a 6c3f
00000690: 35e3 13a2 b98f 77bf ef90 9fd2 c270 adbf
000006a0: 60ac a245 d28f a13f 52b2 cf6a 5ed1 a7bf
000006b0: 9c9e 88cd d08a adbf f2ea 51f0 be36 7cbf
000006c0: e7bb 9cb5 6b2b 6f3f 3809 a7ad 5219 bbbf
000006d0: e3a5 6c30 f888 b93f e7bd 8e99 530b 953f
000006e0: 00ad e3c6 7d9d a0bf 6180 ff38 ace7 bcbf
000006f0: ff00 f84b 58e5 94bf 1b74 de4c 4a35 b0bf
00000700: 7c27 1ed8 e168 ab3f 6c35 a360 7adf a1bf
00000710: 0a7f 0a8f 2d22 71bf e15a 8316 1ea0 9cbf
00000720: 405f 73f9 40ff b7bf 3460 bff3 e6fa 8fbf
00000730: c981 3388 a787 a6bf 488b e8a0 b061 adbf
00000740: bb0b 4eac 28bd ad3f cb5c 2b26 be6c b23f
00000750: 4081 f11d 09e2 acbf 0a7e 922a a024 a7bf
00000760: 701a bbb0 c9a5 b23f 9e43 970a 829a 93bf
00000770: 30ab 92c6 f4e7 59bf 4a13 1450 7d81 babf
00000780: e7ec 0b40 9eb1 893f 5b2a c9b6 619e babf
00000790: 0c0c f74c bdf8 a3bf bebb 0d68 0139 adbf
000007a0: 4fc0 e7ea 6e93 a9bf 34d1 9295 7ade 75bf
000007b0: eac8 fa76 e4ea a4bf faf3 c733 be4f a8bf
000007c0: edea a4a1 a0e1 b3bf 91ee 2528 bce6 b13f
000007d0: 2411 487e 33e0 9ebf 2e4d 5900 1186 b9bf
000007e0: da2d 7424 d911 a7bf 5f5d bfb4 a131 a4bf
000007f0: e25a 8bcc 1635 b7bf ff02 f20d abe0 a6bf
-1.630532133505247 -1.4504443174099373 0.1855511543112541 -0.5125829304690709 1.0606096272553098 -1.418775649671146 -1.6486263702347554 0.9413206956918713
1.263806517175714 0.3097945415324897 -1.1384680535617986 -0.4657720432827663 0.34448403747081624 -0.9096717161434 0.5248888833223787 -1.0545259246036691
-0.1631417452806024 -1.9358917530620423 -2.245166853032024 -0.2868109045783609 -0.5481501315078001 0.17365061955553943 -0.6847066482595501 -0.48492867049044847
0.5584215727530383 0.006482247493723919 0.02434437293930053 0.06209671639117181 -0.09712145442342901 -0.11420516660809993 -0.018339169590839505 0.03999201954935036
-0.006539529151591519 -0.0404334411031151 0.09090017752998711 -0.004587113316524852 0.10074957385057834 -0.06512522041004443 0.030667100024810823 0.0029368102191386775
0.06088865598980914 -0.001817677362172851 0.05178266007756552 0.050462625579526604 -0.10203096411169679 0.0856264944751983 0.0636692633391659 -0.004882138084397816
-0.07326597057400397 0.09859012509947093 0.09094819386258074 0.11376418510473701 0.0863435497713485 -0.108692504735194 -0.04846872973400583 0.11733699744126938
-0.013767433457938572 0.002191530671562636 -0.11586502083828282 -0.10319752510671643 -0.03925852653205386 0.011575580566859506 0.10019832318014557 -0.11481043479083018
-0.05054265960637745 0.03347024376346164 0.06573876407053003 -0.0288286564785631 -0.04446190698883576 0.045784365179893594 -0.021790963229780164 0.032588289414796356
-0.10794377852188983 0.08238399216262562 -0.11884377076094843 -0.09957230297998171 -0.06811901182220385 -0.0517742555915559 0.0809737571775081 -0.006543740731909237
-0.07963892110056728 0.11994829394974756 0.00043822943827516474 -0.06669906486670227 -0.0113832569990484 0.023893268941223473 -0.061556528470131704 -0.033239902868741386
-0.06395176229637058 -0.04725418998418597 0.01565151202395156 -0.09094551077324887 -0.09042613381744355 -0.10574806592722215 0.0401313138036189 0.11545799595301369
-0.0254068852471554 0.028887266901903928 -0.09137152848963487 0.09126805001538112 0.06193982039541571 0.06659117721436214 -0.06339857884496174 0.09101868029379138
0.09735072572539478 0.10055059615673437 0.0011458141517549077 -0.012731186503639944 -0.0009027604162239934 0.10437885498962021 -0.09082602409092147 0.0640877510881178
-0.04382477541406913 -0.001535038315507097 0.03222304562000646 0.10458697193534325 -0.10776503320333362 0.0805183199346372 0.03165034999532166 -0.014057707080337007
-0.07056449162131703 -0.04820130012422695 0.10577145664835522 -0.046003318914981536 0.1005496655055268 0.09851817730009156 0.10636285793925197 -0.09883218106273076
-0.11992802426561935 -0.08684391249395416 -0.00016315061407500738 -0.05311049522612699 -0.07514148864042294 -0.11616437686501588 -0.08631336872390695 -0.0001297451090354285
0.11760880832350248 -0.07701592220560345 -0.104599715293919 -0.05965130198247165 -0.003933272196804814 0.08972343646515815 -0.07316426594202388 -0.024908713232294027
-0.008626591615217259 -0.1065286170234594 0.043566436811359396 0.052898230362192836 -0.02417737867847919 -0.04601694406742761 0.0906759228055055 0.06093147384565946
0.07603288570831909 0.07920746259661675 0.07859491975343154 0.07907529658944712 -0.05200786534507059 -0.07512925274777274 0.01898514562674538 -0.08815105586500982
0.07733362813999356 0.0608465773781621 -0.04013469506907178 0.05323905623678009 -0.03758299753361021 -0.11190526626432588 -0.08856687340984779 -0.0027694919233702564
0.08536169726383339 0.006999158047953321 -0.10711211800587916 -0.028590489598738205 -0.06622352598426604 -0.10535039697098349 0.08733485474194325 0.10939388993944071
-0.05395721177298872 -0.03774014335993155 -0.017672887701696807 -0.05694521702622193 -0.05668439955544181 -0.0063597728062705465 -0.09924451882462591 -0.06590275495926595
0.13592387417534818 0.06143684586744159 0.04811797166084741 0.04284415565528099 0.03985124860942444 0.04473871652105585 0.10590941665435014 0.1080560826341115
-0.021286374317278547 0.08780201120671767 0.11093807218462685 -0.1134513414186832 -0.1566747024679414 -0.015123652666283006 0.0710128653292647 -0.009611528003236591
-0.09158134728029203 0.036729107975420214 0.11983690796916513 -0.0968959882886566 -0.03904086373593293 -0.07754278289140093 0.04000126728657456 -0.00878477737797194
-0.011721585481284182 0.003476440197215446 -0.005752301339492051 -0.05750092335782308 0.03430039501230264 -0.04651923230980927 -0.0576997042556375 -0.006888147215358785
0.0038048843097366783 -0.1058551477390538 0.09974623853908997 0.020551019904528813 -0.03245156338547339 -0.11291004554323215 -0.02040613139797731 -0.06331314446147511
0.053534562713209305 -0.03490812711388966 -0.0041829852713417635 -0.027954549907771024 -0.09373861398796368 -0.015615276635728127 -0.04400371110546392 -0.057385940210471775
0.05808379271822824 0.07197178298825972 -0.05641201487083203 -0.04520130653076755 0.07284222187727507 -0.01914408864633154 -0.0015811815631347585 -0.10353835301436934
0.012545811013743037 -0.10397921288055427 -0.03900710644258973 -0.05707554240404232 -0.04995295159812995 -0.0053391254852395605 -0.0408545871008686 -0.04748339063733194
-0.07766155191795195 0.06992698650531738 -0.03015213449727229 -0.09970194109455541 -0.04505804605477311 -0.0394411595477162 -0.09065382474669151 -0.04468283219558166
