machine learning/week5_my/theta2.npy (npy, 2208 bytes, 1 tensors)

array f8 [26, 10]
000000 b4 cf 27 9a 66 74 f1 bf ae f9 67 8b 93 c5 ec bf
       -1.0909181615543107 -0.8991182062889516
000010 13 5d 76 95 90 36 da 3f a0 3e 0d 08 e1 d4 ee 3f
       0.4095803699105584 0.9634862096081243
000020 80 bd 56 97 72 7f f7 bf 48 a0 3f ce 84 cf 00 c0
       -1.468615142028142 -2.1013275254408974
000030 d1 cc a4 fc 04 41 fa bf d8 9c c4 6b 79 99 18 c0
       -1.6408738964935774 -6.149877246737752
000040 c5 91 bb c9 cb 3e 12 c0 15 b3 2a aa be 85 f2 bf
       -4.561324264596299 -1.157652535165828
000050 62 9d 68 b9 b9 bd e1 bf 2e 04 94 c5 6a e1 05 c0
       -0.5544098492872929 -2.735066932277298
000060 cd 26 40 ab 3c 85 0c 40 e4 f3 76 22 03 9e e3 bf
       3.565057123084307 -0.6130386040819045
000070 8b f7 69 3e 9d 5c 15 c0 94 95 e5 16 45 a4 05 40
       -5.340443587510786 2.7052099026502194
000080 f3 29 9e 3f be b2 08 40 71 d7 72 9d e4 1e ec bf
       3.0872769327299863 -0.8787711215179411
000090 12 e2 6d d8 75 37 10 c0 b6 ca 12 ef 22 f8 a4 bf
       -4.0541604821269335 -0.04095563095451864
0000a0 d0 68 71 e6 4c bb cf bf b0 c7 a8 d8 06 ba ca bf
       -0.24790345432376748 -0.20880208567683445
0000b0 66 f8 20 a6 7c 4a da bf 5b c6 8a b8 e1 59 10 c0
       -0.41079632018580126 -4.087775119276183
0000c0 19 e0 9c d2 51 64 ed bf ae 6f 9d 12 29 43 10 c0
       -0.9184960473567144 -4.065586367472788
0000d0 09 22 16 72 4d 9b 07 c0 1d 30 92 49 02 ef 17 40
       -2.9508313096050682 5.983407163188557
0000e0 02 db b3 ee 33 4f 12 40 ca d2 68 a8 6e 62 d9 3f
       4.577346544005879 0.396632828199739
0000f0 16 fe 02 89 af bd e1 bf f6 0d f9 75 8a 1b fa 3f
       -0.5544049907693445 1.6317238434138495
000100 72 25 11 94 0b c0 f0 bf aa 4d 9c e7 64 ce 1c c0
       -1.0468860420099557 -7.201556795992852
000110 12 18 6b 3e 7c 21 ef bf 65 18 b1 f6 c7 04 f7 bf
       -0.972837564383328 -1.438667262687454
000120 82 34 29 98 de f8 fc bf 0c d9 c6 1e 59 76 0c c0
       -1.8107591575419808 -3.557787170832972
000130 a6 ed b4 2e a2 bd 1d 40 95 6a bb 34 65 2c 01 40
       7.43518898944186 2.1466774100966384
000140 e0 3f 4e 14 e4 a4 e1 bf 4f 54 b2 bc f5 60 09 40
       -0.5513782879443134 3.172343706314258
000150 ef ce f5 78 f5 92 ff 3f 90 88 36 a3 9b dc 1a c0
       1.9733786320693374 -6.715437460139711
000160 eb ac 0d 7d ef 0a ee 3f ec 1a dd 03 23 8d 1a 40
       0.9388349001359563 6.637828884477795
000170 47 2e 31 d5 d2 88 ff bf 61 49 01 60 a3 58 1e c0
       -1.9709041908089533 -7.586560726240664
000180 82 1b 1a 15 ab 11 f9 bf 9d 6b 8f d5 cb 18 0e c0
       -1.5668135475441152 -3.76210753292021
000190 44 5d b0 d7 59 e3 14 c0 ac 32 60 6f 91 81 13 40
       -5.222022409572052 4.876531353231865
0001a0 e3 d3 83 e1 a6 b9 13 c0 ea dc 6c 08 8d 67 fa 3f
       -4.931300662680743 1.6502809838401
0001b0 88 42 a9 d3 0b 36 14 40 52 b3 82 f6 ee 75 f4 3f
       5.052779490667156 1.2787923459356603
0001c0 d4 8c e3 4c 32 c4 10 c0 87 59 18 31 f6 a2 00 40
       -4.191598130596692 2.079571136050791
0001d0 bc 76 7f 8c 34 37 0a c0 44 9d 6d 4b b9 74 df bf
       -3.276955697669875 -0.49149925581010145
0001e0 24 2a 44 1c 94 73 f4 3f b2 2c 2a 9d af dd 07 40
       1.2782174209738821 2.983245113229338
0001f0 53 cb ba f0 a1 1f 1d c0 d4 20 e9 db 6d 4a f5 3f
       -7.280891190911308 1.330671175981526
000200 fd c2 de f8 5b f8 f9 bf 64 c2 72 5c 08 f8 03 40
       -1.623134586476396 2.4961096975824137
000210 52 29 71 e5 cf 74 f2 3f 2b f6 43 ca d3 7f 1a 40
       1.1535185778216897 6.624831352613493
000220 90 55 b7 b5 87 4c 0f c0 43 e9 f0 72 97 77 10 c0
       -3.912368220956246 -4.116788669542362
000230 ff 57 c5 87 fc 07 07 40 c7 a4 52 7c df b8 f2 bf
       2.878899632177308 -1.1701350075111792
000240 3f 87 58 b7 dc 00 04 40 a3 0d 09 30 6a a5 ee 3f
       2.5004209827319808 0.9576922357741079
000250 1e e6 af e8 fe 5c 13 c0 5e 4d 6d 36 3a ff 04 c0
       -4.840816150413529 -2.6246227504831685
000260 28 a1 1b 53 fc e3 01 c0 2f a7 36 2d c9 b8 0d 40
       -2.236321114807783 3.7152274639419356
000270 4f 00 e7 ca e9 06 e2 bf a6 a7 09 ac 7c f4 00 c0
       -0.5633439028679365 -2.1193784180113253
000280 b5 39 d9 f7 a0 75 03 c0 68 bd f5 87 59 92 12 40
       -2.432435928646749 4.642919659017345
000290 de 8c 3b 66 cb ce 02 c0 47 3f d2 1d 33 cf fa 3f
       -2.3509738909648226 1.6755858578580545
0002a0 bb b7 4f fe 38 51 1b c0 31 7b f6 b1 66 fd ec bf
       -6.829318975081999 -0.905932757934215
0002b0 75 55 06 46 8b 7d 0f 40 df 3e 67 0e 4c ac e4 bf
       3.936300799434941 -0.6460323602022661
0002c0 dd 65 60 5b a4 2f e5 3f 0a 7b 7e 95 92 6b 12 c0
       0.662065676183541 -4.60505136093594
0002d0 dd d1 f3 b0 8c ea 11 40 ae 55 5c aa 72 87 12 c0
       4.479052319413737 -4.63227335156027
0002e0 a2 a1 61 b0 7d 3f 00 c0 e8 c2 c5 e5 92 d6 03 40
       -2.0310014514727337 2.47977237233896
0002f0 a6 43 25 3e c9 c5 02 c0 53 21 09 f9 52 af 11 40
       -2.346575246345725 4.4212149535963645
000300 e9 68 5e 73 1c 37 01 c0 c1 2e 29 90 b3 4f db bf
       -2.1519097340761744 -0.42673958852968147
000310 a8 1c ee 86 81 fd f8 bf 1c b3 55 da 7c 2a f8 bf
       -1.5618911047657011 -1.5103729752256134
000320 07 1e 54 53 f9 14 d5 bf 4d f0 b0 c8 57 3a 1a c0
       -0.3294051469569869 -6.5569754941935345
000330 5e 17 3d 32 13 08 0f 40 c4 a9 a0 a8 fa d0 f1 bf
       3.8789428639310435 -1.1135202967658282
000340 5e f1 a2 ab 7e df f0 3f 8e fd e3 a7 05 4e f8 bf
       1.0545641617346386 -1.5190483625627595
000350 59 e1 22 ea a7 e2 03 40 e3 ce a7 7e d4 96 ef bf
       2.4856718341726887 -0.9871618722667929
000360 8d 0d a8 25 41 47 12 c0 61 cd dd 59 46 6b 0f c0
       -4.569584453947198 -3.9273802777112654
000370 40 03 e1 8a 60 8d 08 c0 c8 88 44 8a a5 85 1e c0
       -3.0690317964476037 -7.630514297898294
000380 10 96 ea 74 15 07 fa bf a6 bb f2 0e 03 4d dd 3f
       -1.6267294470829974 0.45782543620856087
000390 ba 23 96 60 87 5e e2 3f 88 09 17 24 1e 20 ff 3f
       0.5740391622977008 1.9453412446751788
0003a0 74 b4 9c 74 ef 24 b9 bf a8 3f e2 90 e5 a6 10 c0
       -0.09821983906722825 -4.162985099610445
0003b0 36 e9 71 67 7c c3 f7 3f 56 ad 7d 08 bb d4 00 40
       1.485226062852758 2.1038723624566655
0003c0 a9 fe 30 1f e2 26 04 c0 90 99 09 f0 02 83 09 c0
       -2.5189859806849495 -3.1889704468660014
0003d0 36 d0 cc 89 3a 41 02 c0 b8 d8 bf c9 f7 c4 ca 3f
       -2.281849934161097 0.20913598395390465
0003e0 61 12 9f 55 a3 4a 04 40 d9 60 97 03 de 26 0b c0
       2.5364443482560977 -3.393978145653915
0003f0 5f 87 53 69 56 76 f8 3f ad 8c 24 ea 2a 6d 02 40
       1.5288910021121962 2.3033045093921687
000400 d4 00 47 4f 0a 93 1b c0 cc fc 9e e9 84 da 03 c0
       -6.893594015797323 -2.4816988231319552
000410 c8 bc 2e e0 96 e9 e8 3f b0 86 76 94 4c b9 05 40
       0.7785143259588034 2.7154780958815863
000420 b1 9c dc 85 73 8f 10 c0 35 a0 9d 72 ba 4a 17 c0
       -4.140089122381299 -5.822976866598812
000430 5c 64 b1 ad be 07 0d 40 d0 b9 0b 9a 78 d1 c7 bf
       3.628781659103465 -0.1860800506760385
000440 9b 8a 9a 4e c5 3e 12 40 b4 ab 82 4d 4a 96 1a c0
       4.561299541647396 -6.646767817593105
000450 ef 89 fe d5 95 f5 0b c0 4d 76 47 41 52 a8 b8 bf
       -3.4949146955780104 -0.09631837934235783
000460 8d 1a 7a f0 30 05 03 c0 e3 66 20 1a e2 fd f0 bf
       -2.377534750677404 -1.0619832058495653
000470 13 a5 17 eb 17 ab 0a 40 fe 1a 6a 5b 60 97 dd bf
       3.33354171434315 -0.4623642819137074
000480 2b e3 fc 2b d5 19 07 c0 89 92 50 a5 43 02 0b c0
       -2.887613624243746 -3.3761055865491625
000490 f5 be 44 7a df e5 01 40 4a 2a f8 5a ef ec fd bf
       2.23724265596672 -1.8703454545490268
0004a0 b6 66 33 59 5f c5 13 c0 2a f7 9e 61 66 3c 00 40
       -4.942746537935525 2.0294921518933693
0004b0 4e e8 c3 4a d0 ab fa 3f 6b 24 5c 1b cc e3 ea 3f
       1.666946689655123 0.8403072866796156
0004c0 63 cd ad 0c 8a f6 18 c0 bc f4 e3 ad d8 c2 01 c0
       -6.2407609921532154 -2.2201398453895234
0004d0 87 a4 fe f9 43 b9 12 40 a9 aa af f1 45 a8 04 c0
       4.680923372428089 -2.58216465775816
0004e0 64 c6 7e 10 21 6a 14 40 d6 f1 7e 8e 92 1b 1e c0
       5.103641755807619 -7.526926256654823
0004f0 58 9e b3 5b e7 b1 fe 3f a2 6f 25 83 10 61 d3 bf
       1.9184335310073006 -0.3027993469929645
000500 2d 67 bc 31 de d0 f6 bf ed eb 8d 4b 3f 8b e2 3f
       -1.4259931509790917 0.5794979549094684
000510 7f fb a5 af db d6 17 c0 76 09 f8 40 95 16 05 c0
       -5.959822411065828 -2.636026866502273
000520 5a 36 11 89 b8 4b ef bf a3 8f dc 7e cb ba e5 bf
       -0.9779932667822309 -0.6790521123661971
000530 b8 bf 2f 53 bc e2 fc bf 50 7b 75 52 e6 7a 01 c0
       -1.8053553819154171 -2.185009617052323
000540 0b e0 a6 d2 d8 47 ea bf 2b 8e d9 bf 60 5e e4 3f
       -0.8212703813833299 0.6365207430903345
000550 0a a7 bc 92 07 d4 01 c0 c2 96 fc c3 e6 dc f6 3f
       -2.228530069715707 1.4289310127000339
000560 d1 a4 9a da 0f e9 13 c0 7c a7 1a c9 07 4a 06 c0
       -4.977599540413579 -2.78614766228287
000570 26 ca fb 00 a9 1e fe 3f 4b ec 75 8c 2e 31 15 c0
       1.8824853933734942 -5.298029131600809
000580 f7 cf 74 7b 15 17 f2 bf f8 22 ef 46 ab 39 04 40
       -1.1306357214461948 2.5281587163666437
000590 35 08 0f 1a 0a d0 f1 bf 59 c3 a2 72 ab 65 f4 3f
       -1.113290883819457 1.274821708484714
0005a0 47 98 58 0e 8e 38 f8 3f 73 fc 99 2a 56 e3 06 c0
       1.5138073501962184 -2.861004193138393
0005b0 3c f7 39 ba 75 e0 02 c0 63 76 ba ba db 8b bd bf
       -2.3595995472850557 -0.11541531857297964
0005c0 1f c9 89 18 88 4c 1c c0 83 7f bd 78 85 0f f5 3f
       -7.074737914476173 1.316289397851478
0005d0 ce f7 99 cf b6 b2 d0 3f 17 fa 6f 55 cc a2 01 40
       0.2609078433378017 2.2044912981794016
0005e0 15 76 16 46 97 b4 09 c0 e8 9a af c2 ac fd 13 40
       -3.213179156837905 4.997729341476521
0005f0 60 94 2c 30 0d 45 ee bf 6c 1d 57 73 20 e3 ed bf
       -0.945929140176883 -0.9339754345645992
000600 9b 4f 20 da 55 0f 06 40 da 7c c1 9a 26 89 09 40
       2.757487968550732 3.191968163518692
000610 63 98 90 24 bc b5 17 c0 b0 db 72 a4 b6 c7 9e 3f
       -5.927475520444292 0.030058721339368766
000620 de 00 9b e2 3d a9 03 c0 3b c4 d1 e2 ae 58 e7 3f
       -2.4576375678590088 0.7295755796495834
000630 f9 bd 2d bb 13 a2 f5 bf af 83 dd 89 9e 63 f3 bf
       -1.3520695983569324 -1.2118211160052217
000640 b2 42 ee 12 5d 8d f7 3f 95 87 80 1c 3f fa 02 c0
       1.4720125903587982 -2.372190687820828
000650 cc 47 7a ec f9 00 e5 bf bf af e3 8b eb 2e 14 c0
       -0.6563691729263552 -5.045820413371927
000660 74 7d 50 e4 68 5d e1 3f 9f 68 ce 72 f5 72 cc 3f
       0.5426525553956894 0.2222582636430319
000670 a5 f3 fe fe 02 8b f4 3f 01 cc 6b 9b c6 63 92 3f
       1.2839384041574047 0.017958739505910874
000680 49 28 0d 44 b3 36 15 40 84 1a d9 93 96 91 0b c0
       5.303418219855367 -3.4460879850988153
000690 04 9d b6 b2 47 f8 1b c0 9f 14 31 d4 47 f1 15 c0
       -6.992461006542047 -5.4856255679088965
0006a0 6a df 36 54 40 8e 0d 40 a4 c5 04 4c 70 ba f4 3f
       3.6944586352582762 1.2955172509649424
0006b0 94 5d bf bc 90 bd fe bf 06 9b 05 b6 23 90 e1 3f
       -1.9212806103658737 0.5488451533427401
0006c0 cb 73 2b 25 de 73 14 c0 47 ae c2 4e fc 1a 0b 40
       -5.113152104165191 3.3881765511667115
0006d0 c9 d7 b7 70 03 a8 09 40 12 25 53 6d ef db c9 3f
       3.207037811861458 0.20202439153789747
0006e0 f1 78 19 06 29 1b 15 40 c3 b5 d9 af a0 5e 17 c0
       5.276523680977548 -5.842409846938099
0006f0 b8 51 d6 f0 15 33 0c c0 05 93 55 8f e0 70 f6 3f
       -3.5249441924481424 1.4025579070086576
000700 ed 3d 29 6a 02 05 0d 40 6a 9e b1 ee 7d 5c f5 3f
       3.627446011909106 1.3350810359933356
000710 51 b9 e7 96 ef 2e 12 c0 0e 05 9d c1 26 65 b4 3f
       -4.545835836308769 0.07966844775093682
000720 0a 59 db af dd ec 03 c0 41 53 ca 91 ce 3d f1 bf
       -2.4906572092833175 -1.0775895781454923
000730 3d 60 0a b0 ee 67 f6 bf 2e f5 4e 53 bf 16 f3 bf
       -1.4003741146643869 -1.1930535558925146
000740 71 bc 7b 0a 28 68 c0 bf b8 36 bc 9e 83 2e 08 c0
       -0.12817860137826956 -3.0227119828403737
000750 9d 73 a2 c6 52 0e 05 c0 56 5d a1 34 3e 22 06 c0
       -2.631993820030813 -2.766720210241753
000760 70 7e ca 06 24 9c 01 40 a8 ef 65 63 25 bf 01 c0
       2.201240590147613 -2.218333031223626
000770 7e 40 94 ee ee 99 17 c0 36 5e 23 55 e7 2a 03 40
       -5.9003255155549805 2.395949044362875
000780 cf e7 14 29 54 2d d0 bf eb fe 67 c8 32 85 0d 40
       -0.25276664745217386 3.6900382668244354
000790 89 40 ee 20 2c 0a 0a 40 25 71 d5 fb c1 06 03 c0
       3.2549669811924713 -2.3782996820938416
0007a0 3e 5c 37 41 72 9f 11 40 4a b1 85 c5 79 ad 03 c0
       4.405709284786154 -2.459704917089913
0007b0 87 b0 ff 19 fc f2 18 c0 b4 96 85 03 01 b2 fc bf
       -6.2372898161230586 -1.7934579980441585
0007c0 18 99 e4 06 30 e0 05 40 42 a1 97 16 11 d0 13 c0
       2.7344666040909367 -4.9531901865050845
0007d0 02 f6 ad 4d 5e b1 10 c0 d4 4a a8 cd b5 fa 01 c0
       -4.173211301558242 -2.247417074869512
0007e0 87 ab 43 7b 78 55 11 c0 61 30 f1 51 ae 64 1b 40
       -4.333467412953616 6.848321228357322
0007f0 dc 87 80 c4 c1 56 0c c0 5e ee 78 aa fb 9a 0e c0
       -3.5423617698406655 -3.8256753271250963
